AliParaformerAsr/data/embed.onnx (onnx, 36037 bytes, 1 tensors)

weight f4 [16, 560]
0	0x3fa8661b	1.315616
1	0xbfbcbd57	-1.4745282
2	0x3fd7ee30	1.6869564
3	0x3e5d43ea	0.21607938
4	0xbddb218e	-0.106997594
5	0x3f1eb1c2	0.61989987
6	0x400a43b7	2.160383
7	0xbffd17d9	-1.9772903
8	0xbed0e2f8	-0.40798163
9	0x3f842d32	1.0326293
10	0x3f9eb496	1.239886
11	0xbdfa13f0	-0.12210834
12	0xbf36588f	-0.7122888
13	0xbcbc04c0	-0.022951484
14	0xbfd1cde0	-1.6390953
15	0xbdddb6c6	-0.10825877
16	0x3fa301f1	1.2734967
17	0xbe8a667a	-0.27031308
18	0xbe84ea05	-0.25959793
19	0x3e9a15b7	0.30094692
20	0x3d70866e	0.058721952
21	0xbe8aba7c	-0.270954
22	0x3ea013f6	0.3126523
23	0xc025403b	-2.5820453
24	0x3ec90950	0.39264917
25	0x3fd77d0a	1.6835034
26	0x3e82ed27	0.25571558
27	0x3fd18c49	1.6370937
28	0xbf879fb6	-1.0595615
29	0xbfcbb301	-1.5914003
30	0xc000fb1b	-2.0153263
31	0xbf8e14a2	-1.1100047
32	0xbf7b84b1	-0.98249346
33	0x3d02b513	0.031910967
34	0x3f83ad18	1.0287199
35	0x3e81349b	0.25235447
36	0xbf0e565e	-0.55600536
37	0x3f850c98	1.0394468
38	0x3cea2025	0.02857978
39	0xbea7673e	-0.32695955
40	0xbeb01d2d	-0.3439726
41	0xbf8c666b	-1.0968755
42	0xbea671a1	-0.32508567
43	0x3e953f93	0.29150066
44	0xbf3863ff	-0.7202758
45	0x3edf039b	0.43557438
46	0x3edbf0a7	0.4295704
47	0x3e639425	0.22224481
48	0xbddce023	-0.10784938
49	0x3fe2479d	1.7678105
50	0x3dc0a16f	0.09405791
51	0x3d032178	0.03201434
52	0x3ff47c10	1.9100361
53	0xbf0907b2	-0.5352737
54	0x3f10e8be	0.56605136
55	0xbf46cca9	-0.77656037
56	0x3d8459ac	0.06462416
57	0xbf60e692	-0.8785182
58	0x3fb257fe	1.3933103
59	0x3e0e4b75	0.13895972
60	0xbeb89fe1	-0.36059478
61	0x3f001890	0.5003748
62	0x3f8813da	1.0631058
63	0x3fb6aa1d	1.4270664
64	0xc0701ba2	-3.7516866
65	0x3e7956b5	0.24349482
66	0x3f913151	1.1343175
67	0xbf888aa6	-1.0667312
68	0xc00c6265	-2.1935055
69	0xc020a1cf	-2.509876
70	0x3f1ce37d	0.6128462
71	0xbf071a14	-0.5277417
72	0x3f086ac9	0.5328794
73	0x3e44667e	0.19179723
74	0x3f623569	0.8836275
75	0x3f20afe5	0.62768394
76	0x3ef31f22	0.4748469
77	0xc01cdddd	-2.4510415
78	0x3e708af0	0.234905
79	0x3eca7370	0.39541197
80	0xbe0fbf43	-0.14037804
81	0x3fa2f220	1.2730141
82	0x3f036bb4	0.51336217
83	0xbdf7e31f	-0.12103867
84	0x3cf4f556	0.029902142
85	0xbf9cce9d	-1.2250553
86	0xbf6dabbf	-0.9284019
87	0xbef418b9	-0.47675112
88	0x3fa11f2e	1.258764
89	0x3fd1f9c9	1.6404353
90	0x3f75b36e	0.9597691
91	0xbfa31c6d	-1.274305
92	0x3f7b84d6	0.98249567
93	0xbd06e037	-0.03292867
94	0x3faf0ca8	1.3675737
95	0x3e1fcffd	0.15606685
96	0xbeae1a1d	-0.34004298
97	0xbed4a835	-0.41534582
98	0xbe6617fd	-0.22470088
99	0xbfb7ba99	-1.435382
100	0xbfd76c15	-1.6829859
101	0xbf532a6a	-0.82486594
102	0x3f359c36	0.70941484
103	0xbf1f1b45	-0.62150985
104	0x3f060c46	0.5236248
105	0x3fa3e590	1.2804432
106	0xbf17a249	-0.59232
107	0x3eb00fd1	0.34387067
108	0xbf00ecc0	-0.5036125
109	0xbfbf6a1a	-1.4954255
110	0xbf1b714e	-0.60719764
111	0x3ec3951e	0.38199705
112	0xbf3c0e19	-0.7345901
113	0xbf0e8800	-0.5567627
114	0x3e41a7bb	0.1891164
115	0xbe316bb5	-0.17326243
116	0xbe39ca91	-0.18143679
117	0x3f02da3a	0.5111424
118	0xbf485b9e	-0.78264797
119	0x3f0fc463	0.5615904
120	0xbf84c146	-1.0371482
121	0x3f380c19	0.7189346
122	0xbf95cd35	-1.1703249
123	0x3f645793	0.8919613
124	0x3f4c3932	0.79774773
125	0xbff3f793	-1.9059929
126	0x3f9cff63	1.2265438
127	0x3f185886	0.59510076
128	0x3d6f6e71	0.058454935
129	0xbff946cf	-1.9474734
130	0xbdf7b2dd	-0.12094662
131	0x3f5a9e8f	0.8539819
132	0xbfb7100d	-1.4301773
133	0x3f899eaa	1.0751545
134	0xbf76b160	-0.963644
135	0x40011b7b	2.0173023
136	0x3f1ae955	0.60512286
137	0x3f88ef27	1.0697984
138	0xbf24ee65	-0.6442626
139	0x3ddad3b5	0.10684911
140	0xbe3eebda	-0.18644658
141	0x3f64c257	0.8935904
142	0xbfc2d5be	-1.5221479
143	0xbe269d8e	-0.1627104
144	0x3effc08b	0.49951586
145	0xbe8186f3	-0.2529827
146	0x40344ef0	2.817318
147	0x3fe69269	1.8013431
148	0xc0099aec	-2.1500807
149	0x4016286b	2.346217
150	0x3ffb8bd3	1.9652046
151	0x3dbaccc3	0.091210864
152	0xbf291cb2	-0.6605941
153	0xbfb73afd	-1.4314877
154	0x3f564ac5	0.8370784
155	0x3ea77ec3	0.327139
156	0xbe12b359	-0.14326228
157	0xbffce480	-1.9757233
158	0x3fe2b2fd	1.7710873
159	0xbf875344	-1.0572286
160	0xbee57b4f	-0.4482064
161	0x3d678bfd	0.056529988
162	0x3e9df0db	0.3084782
163	0x3f1b9656	0.6077627
164	0xbf0d8890	-0.552865
165	0xbfd82fed	-1.6889626
166	0x3f528c3f	0.8224525
167	0x3f92dbd3	1.1473335
168	0xbed37735	-0.41301885
169	0xbf9a9cea	-1.2079136
170	0xbedfe7d8	-0.4373157
171	0xbf355390	-0.7083063
172	0xbf4be3a2	-0.79644215
173	0x3f0bf7b1	0.5467482
174	0xbf3bc45b	-0.7334649
175	0xbf4d4e05	-0.80197173
176	0xbe8f73a7	-0.28017923
177	0x3f7598c7	0.95936245
178	0x3edac94e	0.42731708
179	0xbf0afcac	-0.54291797
180	0xbf574a6f	-0.8409795
181	0x3f294815	0.66125613
182	0x3d1e5068	0.0386509
183	0xbe70b2f0	-0.23505759
184	0xbf2655eb	-0.6497485
185	0xbf183125	-0.5944999
186	0x3f873204	1.0562139
187	0xbf84433b	-1.0333017
188	0xbfc31449	-1.5240566
189	0x3e6f27ab	0.23354976
190	0xbda35789	-0.079756804
191	0xbfc626c3	-1.5480579
192	0xbe030fcc	-0.12798995
193	0x3f7f97a8	0.99840784
194	0xbee2c0b7	-0.44287655
195	0xbda71a6f	-0.08159339
196	0x3f5584e9	0.8340593
197	0xbf58883b	-0.8458287
198	0xbf497b02	-0.7870332
199	0xbf96a2f9	-1.1768485
200	0xbeddac4d	-0.43295518
201	0xbed2aeb7	-0.41148922
202	0xbf7f9e81	-0.9985123
203	0x3f122d3c	0.5710027
204	0x3f8c2e1c	1.0951571
205	0xbf341273	-0.7034065
206	0x3e840916	0.25788182
207	0xbdb83373	-0.08994188
208	0x3fb4a350	1.4112339
209	0x3f77017a	0.9648663
210	0x3fd76861	1.6828729
211	0x3f6e7ad7	0.9315619
212	0xbfc2309a	-1.5171082
213	0x3e7c8b2e	0.24662468
214	0xbf824de6	-1.0180023
215	0xbf187871	-0.5955878
216	0xbfa86505	-1.3155829
217	0x3feb5907	1.8386544
218	0x3f1418d9	0.57850415
219	0x3f28cd3f	0.6593818
220	0x3e16a54b	0.14711492
221	0xbe68e7fd	-0.22744747
222	0xbec88b49	-0.39168766
223	0x3e9686ff	0.2939987
224	0xbf595b05	-0.8490451
225	0xbf3106f8	-0.6915126
226	0xbf223dbd	-0.63375455
227	0xbfb9c450	-1.4513035
228	0x3f85a74a	1.0441678
229	0x3f4a7c41	0.79095846
230	0x3f4d4068	0.801764
231	0x3f9d88c1	1.2307359
232	0xc008a383	-2.13498
233	0x3f91f919	1.1404144
234	0xbfb6fc63	-1.4295772
235	0xc005e9c2	-2.0923924
236	0xbf1f4a03	-0.6222231
237	0xbea81d7f	-0.32835004
238	0xbdb96512	-0.09052481
239	0x3fc6bf07	1.5527047
240	0x3cd48641	0.025942924
241	0xbf6bf297	-0.9216704
242	0xbf54bd3b	-0.8310124
243	0xbe4b576e	-0.1985757
244	0x3f8de5e6	1.1085784
245	0x3f4d2107	0.8012852
246	0x3f0d7363	0.5525419
247	0xbf30fc5e	-0.6913508
248	0xbeeb0e2f	-0.4590926
249	0x3f219000	0.6311035
250	0xbdab70fb	-0.08371159
251	0x3e01e910	0.12686563
252	0x3e8deb59	0.2771862
253	0xbf9dda4f	-1.2332247
254	0x3f7cd4b7	0.9876208
255	0xbfcbfb1d	-1.5936009
